…
tial:\n    return nn.Sequential(nn.Flatten(),\n                         nn.Linear(784, 256), nn.ReLU(), nn.Linear(256, 10))\n\nlenet, mlp = LeNet(), make_mlp()\nfor name, p in lenet.named_parameters():\n    print(f\"{name:14s} {str(tuple(p.shape)):16s} {p.numel():&gt;7,}\")\nn_conv = sum(p.numel() for n, p in lenet.named_parameters() if \"conv\" in n)\nn_lenet = sum(p.numel() for p in lenet.parameters())\nn_mlp = sum(p.numel() for p in mlp.parameters())\nprint(f\"\\nLeNet: {n_lenet:,} parameters ({n_conv:,} of them convolutional)\")\nprint(f\"MLP:   {n_mlp:,} parameters\")\n\n\nconv1.weight   (6, 1, 5, 5)         150\nconv1.bias     (6,)                   6\nconv2.weight   (16, 6, 5, 5)      2,400\nconv2.bias     (16,)                 16\nfc1.weight     (120, 400)        48,000\nfc1.bias       (120,)               120\nfc2.weight     (84, 120)         10,080\nfc2.bias       (84,)                 84\nfc3.weight     (10, 84)             840\nfc3.bias       (10,)                 10\n\nLeNet: 61,706 parameters (2,572 of them convolutional)\nMLP:   203,530 parameters\n\n\nTwo readings of this table. Against the MLP: LeNet carries 61,706 parameters to the MLP’s 203,530 (less than a third) while performing far richer spatial computation. Weight sharing is doing exactly what Chapter 7’s matrix view promised. Within LeNet: look where the p
…
